PyThon/model.pt (torch, 2112 bytes, 3 tensors)

fc1.weight f4 [8, 3]
0	0x3f11f785	0.5701831
1	0xbe7169f9	-0.23575582
2	0xbeaf9908	-0.3429644
3	0x3f0289cc	0.5099151
4	0xbee67308	-0.45009637
5	0xbe3b35d8	-0.18282259
6	0xbe4fbe92	-0.2028754
7	0x3eadecb7	0.33969662
8	0xbe1819b2	-0.14853552
9	0xbebc363e	-0.36760134
10	0xbe4104f0	-0.1884954
11	0xbceff070	-0.029289454
12	0x3e95dc1b	0.2926949
13	0xbf06d0d8	-0.5266242
14	0x3e213394	0.15742332
15	0x3e3dfd24	0.18553597
16	0x3ed78133	0.4209076
17	0xbf07551a	-0.5286423
18	0xbda214cb	-0.07914122
19	0xbe021b72	-0.12705782
20	0xbce705bd	-0.028200978
21	0xbe0cebd2	-0.13761833
22	0xbebb096b	-0.36530623
23	0xbe02c94d	-0.12772103

fc1.bias f4 [8]
0	0x3dfaa080	0.12237644
1	0xbe9948f4	-0.2993847
2	0xbf044e0b	-0.51681584
3	0x3e9b9bd1	0.30392316
4	0x3db64e2b	0.08901628
5	0x3eb86cf6	0.3602063
6	0x3eb0aa56	0.34504956
7	0xbf05c707	-0.52256817

fc2.weight f4 [1, 8]
0	0xbdd45fd9	-0.10369844
1	0x3eaa6080	0.3327675
2	0x3c9bee0b	0.019034406
3	0xbe18bbc2	-0.14915374
4	0x3d6172f4	0.05504127
5	0x3e68f732	0.22750548
6	0x3db2412e	0.08703838
7	0xbde87fb8	-0.113524854
